…
c:\users\ryanm\appdata\local\programs\python\python37\lib\site-packages\tensorflow\python\framework\dtypes.py:535: FutureWarning: Passing (type, 1) or '1type' as a synonym of type is deprecated; in a future version of numpy, it will be understood as (type, (1,)) / '(1,)type'.
  np_resource = np.dtype([("resource", np.ubyte, 1)])
2019-12-29 08:17:29 INFO     rasa_sdk.endpoint  - Starting action endpoint server...
Using TensorFlow backend.
2019-12-29 08:17:30 WARNING  root  - logging check
Model: "model_2"
__________________________________________________________________________________________________
Layer (type)                    Output Shape         Param #     Connected to
==================================================================================================
hour (InputLayer)               (None, 1)            0
__________________________________________________________________________________________________
Route (InputLayer)              (None, 1)            0
__________________________________________________________________________________________________
embedding_8 (Embedding)         (None, 1, 10)        240         hour[0][0]
__________________________________________________________________________________________________
embedding_9 (Embedding)         (None, 1, 10)        140         Route[0][0]
__________________________________________________________________________________________________
day (InputLayer)                (None, 1)            0
__________________________________________________________________________________________________
batch_normalization_8 (BatchNor (None, 1, 10)        40          embedding_8[0][0]
__________________________________________________________________________________________________
batch_normalization_9 (BatchNor (None, 1, 10)        40          embedding_9[0][0]
__________________________________________________________________________________________________
embedding_10 (Embedding)        (None, 1, 10)        70          day[0][0]
__________________________________________________________________________________________________
month (InputLayer)              (None, 1)            0
__________________________________________________________________________________________________
flatten_8 (Flatten)             (None, 10)           0           batch_normalization_8[0][0]
__________________________________________________________________________________________________
flatten_9 (Flatten)             (None, 10)           0           batch_normalization_9[0][0]
__________________________________________________________________________________________________
batch_normalization_10 (BatchNo (None, 1, 10)        40          embedding_10[0][0]
__________________________________________________________________________________________________
embedding_11 (Embedding)        (None, 1, 10)        120         month[0][0]
__________________________________________________________________________________________________
year (InputLayer)               (None, 1)            0
__________________________________________________________________________________________________
dropout_8 (Dropout)             (None, 10)           0           flatten_8[0][0]
__________________________________________________________________________________________________
dropout_9 (Dropout)             (None, 10)           0           flatten_9[0][0]
__________________________________________________________________________________________________
flatten_10 (Flatten)            (None, 10)           0           batch_normalization_10[0][0]
__________________________________________________________________________________________________
batch_normalization_11 (BatchNo (None, 1, 10)        40          embedding_11[0][0]
__________________________________________________________________________________________________
embedding_12 (Embedding)        (None, 1, 10)        60          year[0][0]
__________________________________________________________________________________________________
daym (InputLayer)               (None, 1)            0
__________________________________________________________________________________________________
concatenate_7 (Concatenate)     (None, 20)           0           dropout_8[0][0]
                                                                 dropout_9[0][0]
__________________________________________________________________________________________________
dropout_10 (Dropout)            (None, 10)           0           flatten_10[0][0]
__________________________________________________________________________________________________
flatten_11 (Flatten)            (None, 10)           0           batch_normalization_11[0][0]
__________________________________________________________________________________________________
batch_normalization_12 (BatchNo (None, 1, 10)        40          embedding_12[0][0]
__________________________________________________________________________________________________
embedding_13 (Embedding)        (None, 1, 10)        310         daym[0][0]
__________________________________________________________________________________________________
Direction (InputLayer)          (None, 1)            0
__________________________________________________________________________________________________
concatenate_8 (Concatenate)     (None, 30)           0           concatenate_7[0][0]
                                                                 dropout_10[0][0]
__________________________________________________________________________________________________
dropout_11 (Dropout)            (None, 10)           0           flatten_11[0][0]
__________________________________________________________________________________________________
flatten_12 (Flatten)            (None, 10)           0           batch_normalization_12[0][0]
__________________________________________________________________________________________________
batch_normalization_13 (BatchNo (None, 1, 10)        40          embedding_13[0][0]
__________________________________________________________________________________________________
embedding_14 (Embedding)        (None, 1, 10)        50          Direction[0][0]
__________________________________________________________________________________________________
concatenate_9 (Concatenate)     (None, 40)           0           concatenate_8[0][0]
                                                                 dropout_11[0][0]
__________________________________________________________________________________________________
dropout_12 (Dropout)            (None, 10)           0           flatten_12[0][0]
__________________________________________________________________________________________________
flatten_13 (Flatten)            (None, 10)           0           batch_normalization_13[0][0]
__________________________________________________________________________________________________
batch_normalization_14 (BatchNo (None, 1, 10)        40          embedding_14[0][0]
__________________________________________________________________________________________________
concatenate_10 (Concatenate)    (None, 50)           0           concatenate_9[0][0]
                                                                 dropout_12[0][0]
__________________________________________________________________________________________________
dropout_13 (Dropout)            (None, 10)           0           flatten_13[0][0]
__________________________________________________________________________________________________
flatten_14 (Flatten)            (None, 10)           0           batch_normalization_14[0][0]
__________________________________________________________________________________________________
concatenate_11 (Concatenate)    (None, 60)           0           concatenate_10[0][0]
                                                                 dropout_13[0][0]
__________________________________________________________________________________________________
dropout_14 (Dropout)            (None, 10)           0           flatten_14[0][0]
__________________________________________________________________________________________________
concatenate_12 (Concatenate)    (None, 70)           0           concatenate_11[0][0]
                                                                 dropout_14[0][0]
__________________________________________________________________________________________________
dense_2 (Dense)                 (None, 1)            71          concatenate_12[0][0]
==================================================================================================
Total params: 1,341
Trainable params: 1,201
Non-trainable params: 140
__________________________________________________________________________________________________
2019-12-29 08:17:35 WARNING  root  - score_cols after define is ['Route', 'Direction', 'hour', 'year', 'month', 'daym', 'day']
…
